posts/data.pth (torch, 8746 bytes, 6 tensors)

l1.weight f4 [8, 114]
000000 df 8c eb be e7 55 60 3f bf 45 8b 3f d7 61 52 bf
       -0.46005914 0.87631077 1.088066 -0.8218054
000010 0d 90 8b bf 52 28 40 bf 93 6d 7f be 47 7e 13 be
       -1.0903336 -0.75061524 -0.24944143 -0.1440364
000020 1c 2a 41 3d ac 45 b6 3e 94 b3 e5 3c a4 38 fc be
       0.0471593 0.3560003 0.028039731 -0.49261963
000030 02 22 0e be b3 b2 1a 3f ea 3a e9 3e 76 05 c3 be
       -0.1388016 0.60428923 0.4555276 -0.38090104
000040 4b 2b 38 3f b7 31 a3 be 48 ff 80 3e 60 47 90 3f
       0.7194106 -0.31873867 0.25194764 1.1271782
000050 2c 64 37 bf 8b 68 42 3e 6f 75 fd be 0b 9f 84 3f
       -0.71637225 0.18985192 -0.49503657 1.0361036
000060 e6 c8 6b be b9 d4 22 bf da f4 90 be e0 58 23 3f
       -0.23025855 -0.6360584 -0.28311807 0.6380749
000070 73 e3 46 3e 13 28 82 3e 50 98 27 3f b4 91 22 3d
       0.19422702 0.254212 0.65466785 0.039689735
000080 38 69 f2 3e 2d 08 48 bf e1 b0 7c bd 30 44 ea 3e
       0.473459 -0.78137475 -0.061692122 0.45755148
000090 a5 bc fc 3e 53 8c 6f 3d 43 71 b8 be 9c d1 12 bf
       0.49362674 0.058483433 -0.36023912 -0.5735109
0000a0 cb eb 58 bf fb 9e 9e 3e 67 fc 19 bf 5b e4 d7 3e
       -0.8473479 0.30980667 -0.6015076 0.4216641
0000b0 c1 2a 17 bf 42 a4 59 bf 75 48 8e 3f db eb 77 3f
       -0.5904961 -0.8501626 1.1115862 0.9684426
0000c0 b1 26 4c be d1 6c c0 3e 1a 96 12 3e 3b 4e 13 3f
       -0.19936635 0.3758302 0.14315072 0.57541245
0000d0 d0 7c 3e bf e0 3c f3 bc 1d 66 37 be 18 67 1a 3f
       -0.744092 -0.029692113 -0.17910047 0.6031356
0000e0 ef eb c2 3e c1 c8 44 be a9 bb 7e 3f 33 04 de 3e
       0.38070628 -0.19217207 0.99505097 0.4336258
0000f0 b3 1a de be 5a fa ea be 50 ec 6e bd cc 19 bf be
       -0.43379745 -0.45894128 -0.058330834 -0.3732437
000100 97 6b db 3e 8d 4a 11 3f c6 df 31 bf 1a 30 1f 3f
       0.42855522 0.5675438 -0.69482076 0.6218277
000110 15 1e 22 bf b2 b7 0d 3e 44 56 31 3f 37 d2 c1 bd
       -0.6332715 0.13839605 0.69272256 -0.094639234
000120 cc f4 dc be 02 21 fd 3e 37 a7 b9 be af ed 2b 3f
       -0.43155515 0.49439245 -0.36260387 0.6715955
000130 1c be 1c 3f f2 54 92 3e 25 e9 1a bf 2a e2 24 bf
       0.61227584 0.28580433 -0.60512 -0.644076
000140 ad da 07 bf 03 0c 75 3e 0d c4 69 3e 3b de 0f bf
       -0.5306805 0.23930363 0.22828694 -0.5619847
000150 7f 50 0d bf 9c 7e 96 be 89 ff de be 51 7d 7b be
       -0.5520095 -0.2939347 -0.43554333 -0.24559523
000160 af 79 23 3f 80 6f d3 be c2 22 1a 3f e7 93 00 3f
       0.6385755 -0.41296005 0.60209286 0.5022568
000170 5e 8b 3f 3f 62 84 0b bf b6 35 35 3f ee 60 3c 3f
       0.7482203 -0.54498875 0.7078508 0.735854
000180 a3 8a 60 bf 7d 61 0d bf d3 e1 25 be e8 16 36 be
       -0.8771154 -0.5522688 -0.16199426 -0.17782176
000190 c1 4e 26 3e e4 b1 08 3f d4 2a 39 3d bd 06 c1 3e
       0.1624098 0.5339644 0.04520686 0.37700453
0001a0 41 10 ff 3e b3 0b 92 3f cf f0 50 3f 46 31 bb 3d
       0.49817088 1.140982 0.81617445 0.091402575
0001b0 1c 17 35 bf 69 77 18 be 6e 60 0c be 87 18 6a 3e
       -0.7073839 -0.14889301 -0.1370866 0.22860919
0001c0 10 b8 8f 3e de bd 0c be b2 6e 69 be 4d b1 2b bf
       0.28070116 -0.13744304 -0.22796133 -0.67067415
0001d0 6a d2 93 be 15 e3 47 3f fd c2 09 3f 00 78 98 3f
       -0.2887147 0.78080875 0.53813154 1.1911621
0001e0 1d b3 50 3f d0 fd 4e 3f 43 a4 9c 3e 1e db b2 be
       0.81523305 0.8085604 0.30594072 -0.34932798
0001f0 68 bc 26 3f 61 1b 44 bf 2c eb 5e 3e 17 39 33 be
       0.65131235 -0.76604277 0.21769398 -0.17502247
000200 6a 72 8e 3e 3a 28 df 3e c8 fc 20 bf 59 d6 41 3f
       0.27821666 0.43585378 -0.62885714 0.75717694
000210 e0 ce 00 3f 91 07 f7 3d 2e c8 81 3e 16 ba ab bd
       0.50315666 0.1206199 0.25348037 -0.083851025
000220 f3 41 08 3f 98 b9 bf 3e 34 8a 48 3f 9f 27 f9 be
       0.5322563 0.37446284 0.7833588 -0.4866304
000230 ab 19 6b 3e 2b 13 18 3f a5 02 4c bd c5 0c 90 bd
       0.2295901 0.5940425 -0.04980721 -0.070336856
000240 bf 2f 06 3e 55 d9 0e bf 09 91 f1 3e 95 99 7a 3e
       0.13104151 -0.5580037 0.47180966 0.2447265
000250 9e d8 c6 3e f7 5e 04 3f ac ae a9 be 14 e0 d7 be
       0.3883714 0.51707405 -0.33141077 -0.42163146
000260 d3 a6 38 3f 89 a1 6a bf 45 63 50 3f 11 a8 ad 3e
       0.72129554 -0.91652733 0.81401473 0.33917287
000270 2d 7e 69 3f b7 29 45 be b8 d5 7f 3f 4e 43 8c 3f
       0.91208154 -0.19254194 0.99935484 1.095804
000280 ea df 75 bf 96 6f 14 3f f2 30 1b 3f f8 f0 b0 3e
       -0.9604479 0.57982767 0.6062156 0.34558845
000290 3c 4c 15 3f 5f d4 cc 3c 14 55 65 3f a7 d4 c3 3e
       0.5831945 0.02500361 0.89582944 0.38248178
0002a0 a5 76 ae be 69 41 ae be ff 0a dc bd 2e a6 cb be
       -0.34074894 -0.3403428 -0.10744285 -0.39775223
0002b0 6f ef aa be 83 d4 bb 3e 66 86 e3 bc 6e f3 9c 3e
       -0.33385798 0.3668557 -0.027774047 0.30654472
0002c0 ca c5 a9 be ce a3 0b bd 66 d7 8a 3e cd 14 be be
       -0.33158714 -0.034091763 0.2711746 -0.37125245
0002d0 ae 4c 24 3f e7 7a 1d 3e e3 bb 15 3f 77 6c a5 3c
       0.64179504 0.15378915 0.5848982 0.020193322
0002e0 a6 d5 30 3e 40 eb 3a 3d 0d 2c b1 3e a6 80 15 3d
       0.17269 0.045634508 0.3460392 0.03649964
0002f0 fe c4 29 3f e1 c3 6a 3f 9c e7 c4 3d e6 1f 60 3d
       0.6631621 0.9170514 0.096144885 0.05471792
000300 7c 8d c0 3e 44 16 12 3f 4c b2 d1 3e 8e 09 83 3e
       0.37607944 0.57065225 0.40956342 0.25593227
000310 fa 55 f3 bd 8d 24 12 3e cf 49 74 3e 5a d7 53 3f
       -0.11881633 0.14271756 0.2385628 0.82750475
000320 e5 02 08 3f c7 c0 d6 be e6 78 85 bd 94 3b 19 bf
       0.53129417 -0.41943952 -0.065172 -0.59856534
000330 cd f4 ad 3e 1e be d1 be e5 9d 14 bf 5c 22 4e 3e
       0.3397583 -0.4096536 -0.5805343 0.20130295
000340 9c d8 57 bd d0 49 70 3f 0e 5b 43 bf 77 a8 90 be
       -0.05269681 0.9386263 -0.76310813 -0.28253528
000350 5b 9c 56 3f a0 c8 cc bd 75 f2 6b 3e 78 e4 e3 bd
       0.8383233 -0.09999204 0.23041709 -0.11127561
000360 dc 2d 14 3f 05 27 87 3e c3 72 79 be 26 5c 8a bf
       0.57882476 0.26396957 -0.24360184 -1.0809371
000370 da 64 4e bd ec 09 07 be b4 a9 89 bd f2 e1 bf 3d
       -0.05038915 -0.13187379 -0.067218214 0.093692675
000380 2b 5a cc 3e d7 a4 1c 3f 73 ce a8 3e 18 80 08 3f
       0.39912543 0.61189026 0.32970008 0.53320456
000390 d6 6f 45 bf 46 63 8e 3e 57 03 be be ae e3 14 3f
       -0.77123773 0.27810115 -0.37111923 0.5815991
0003a0 48 60 a3 bb 8b bf 73 3f 99 07 d2 3e 11 6e e2 3e
       -0.004985843 0.95214146 0.41021422 0.442246
0003b0 79 a6 d9 3e 0e 8d e2 be 1f ec 5a 3f a5 53 8b 3d
       0.4250982 -0.4424824 0.8551654 0.06803063
0003c0 ad 76 e1 3e 10 33 38 bf 91 dd 2c 3f c2 64 f4 3e
       0.44035855 -0.71952915 0.67525584 0.47733122
0003d0 9c 7b 21 3f 07 4e 29 3f d8 49 55 3f 40 4f 74 3e
       0.6307924 0.66134685 0.833158 0.23858356
0003e0 10 de e5 be 0a 84 f4 be 65 10 a8 3e 77 6d a7 3f
       -0.44895983 -0.47756988 0.32825008 1.3080281
0003f0 af 0c 8d 3e 62 bd 59 3e 84 f1 af be ff e0 cc 3e
       0.2754874 0.2126365 -0.3436395 0.40015408

l1.bias f4 [8]
000000 fa 2c 17 3f a7 a4 6a 3f d0 d7 9c 3f a7 f8 0c 3f
       0.59053004 0.9165749 1.2253361 0.55066913
000010 f6 6f 9e 3f b0 cf 19 3f 22 2c a3 3f dc b9 86 3f
       1.2377918 0.6008253 1.2747843 1.052547

l2.weight f4 [8, 8]
000000 0a 0d 04 40 f8 ac 8f bf d1 e2 8f 3d 79 8a b5 bd
       2.0632958 -1.1224661 0.07025684 -0.08864302
000010 00 ff 43 3f 3b 45 da 3f 11 90 76 3e aa f9 d5 3f
       0.76560974 1.7052377 0.24078394 1.6716816
000020 34 d3 f0 3f 53 6a 34 bf d0 93 e3 3e 52 43 15 bf
       1.8814454 -0.7047474 0.4444871 -0.5830585
000030 03 94 f7 3c 30 ee c4 3f ee ee 39 bf c9 7d ef 3f
       0.030221945 1.5385189 -0.726302 1.8710262
000040 85 f5 65 bf fa ef 9f bd 76 70 45 be 6e 29 93 3f
       -0.8982776 -0.07809444 -0.19281182 1.1497018
000050 41 c7 09 40 54 d6 91 3f 7b cd fe 3e dc 7e 26 be
       2.1527865 1.1393533 0.49766144 -0.1625933
000060 3f b5 4b bf 7f 29 fe 3f fc b4 01 40 17 3a 19 3f
       -0.79573435 1.9856414 2.0266714 0.59854263
000070 3d c1 80 bf 41 dd 40 3f 9b 05 00 be 37 87 04 3f
       -1.0058972 0.75337607 -0.12502138 0.5176882
000080 fd 8a c4 3e d1 12 3c bf 09 01 bb 3f 30 05 fa 3f
       0.3838729 -0.7346621 1.4609691 1.9532833
000090 89 d5 b5 3f 10 f1 46 3f 72 78 27 be af 9d a0 bf
       1.4205791 0.7771158 -0.1635454 -1.2548121
0000a0 4b 41 4c 3f af 18 db 3f eb b9 b6 3f 11 18 f3 bd
       0.7978713 1.7116908 1.4275488 -0.11869825
0000b0 d1 53 1c bf b4 95 e1 bf aa da e1 3f 7c 58 13 bf
       -0.61065394 -1.7623811 1.7644856 -0.5755689
0000c0 9b 82 fd 3f da 01 f5 3e 0d b8 37 3f 17 16 c0 be
       1.9805483 0.47852975 0.71765214 -0.37516853
0000d0 ef 4a a0 3e 39 30 42 bf ce f5 b0 3f d8 4f 3e bf
       0.3130717 -0.7585483 1.3825014 -0.7434058
0000e0 87 97 9e bf 6b 43 17 3f c6 e0 97 be be a9 bf bf
       -1.2389992 0.59087247 -0.29663676 -1.4973676
0000f0 8d 6c cc 3f 18 83 28 be 01 b5 00 40 99 f7 e7 3f
       1.5970627 -0.16456258 2.0110476 1.8122436

l2.bias f4 [8]
000000 9c b7 e1 bd 8b 4d 67 3f 6c c0 a9 3e a6 60 b0 3e
       -0.11021349 0.90352696 0.3315462 0.34448737
000010 49 50 94 3e db 5c 72 3f 71 8a 1e bd b4 9e 3d 3f
       0.28967503 0.94672936 -0.038706247 0.74070287

l3.weight f4 [19, 8]
000000 b7 a8 d4 be cd bf c4 be 75 40 6c 3e e8 b5 2c c0
       -0.4153497 -0.38427582 0.23071463 -2.6986027
000010 02 67 ea be 4a 6f 45 3e 69 4d 15 3f 6c f5 0c 3e
       -0.45781714 0.19280735 0.58321244 0.13765496
000020 6d d9 19 c0 ef fd de bf 65 22 22 c0 7a 7c 52 3f
       -2.4038956 -1.7421244 -2.5333493 0.82221186
000030 ae af cf bf da a3 50 3f fe 5c 2c 3e eb 22 01 3e
       -1.6225488 0.8150002 0.16832349 0.12610976
000040 ff e1 be bf b7 2a 06 3e 12 80 15 c0 79 0f 1f 3f
       -1.4912719 0.13102232 -2.3359418 0.62132984
000050 15 75 b3 be 53 19 24 3f 50 04 b6 3e 9f 53 0a c0
       -0.35050264 0.6410114 0.35550165 -2.1613538
000060 41 b8 49 3e b9 48 29 3f db 45 3e c0 fd 5a 08 be
       0.19699194 0.6612659 -2.9730136 -0.1331596
000070 84 3f 12 c0 2c 17 08 be 07 81 19 be 8c b5 4f bd
       -2.2851267 -0.1329009 -0.14990626 -0.050710246
000080 9e f2 0b bc a7 7d 0d 3f 23 1f c6 bf ae 12 c0 3e
       -0.008541731 0.55269855 -1.5478252 0.3751425
000090 b6 83 9d bd 1f 40 d8 be e2 3a a5 be 9d 1f ff bf
       -0.076911375 -0.4223642 -0.32271487 -1.9931523
0000a0 68 2e 9b be 2c 3a 19 be bf e7 59 3f 04 e0 2a be
       -0.30308843 -0.14963597 0.8511924 -0.16687018
0000b0 56 b8 68 3f 38 2b c1 bf 61 3b ff bf d5 4f 10 c0
       0.90906274 -1.5091314 -1.9939996 -2.2548726
0000c0 ed e6 e7 bd 48 0b 0f be e9 13 b4 bd f2 1e b2 bf
       -0.113233425 -0.13969147 -0.0879286 -1.3915694
0000d0 c2 06 03 3f e1 a7 31 be 08 45 be 3e 90 c6 c0 bf
       0.51182187 -0.17349197 0.37162042 -1.5060596
0000e0 28 07 76 be 2d 07 95 3e 97 8c be 3e 59 ff 76 bf
       -0.24026167 0.29107037 0.37216637 -0.9648338
0000f0 dd 2f 0c 3f f7 2f fc bf 9c d7 d8 bf ca aa d5 3e
       0.54760534 -1.9702138 -1.6940799 0.41731864
000100 31 c9 6c be 8a 06 61 3e 24 cc e1 be 4e 6b 5a 3f
       -0.23123623 0.2197515 -0.4410106 0.85319984
000110 82 3b a8 bf 40 90 a1 bf 2f 34 f7 bf 23 5c a2 3e
       -1.314316 -1.2622147 -1.93128 0.3171092
000120 1e 2d 97 bf 38 5c b9 be 3b 9e 95 be b9 9c af 3e
       -1.1810644 -0.3620317 -0.29222283 0.34299257
000130 ba 96 1f c0 62 19 1e 3f 0e 7f 0f bf d9 e0 3b 3f
       -2.4935746 0.6175748 -0.56053245 0.73389965
000140 4b 8d 00 3f 31 2e b9 3e 5f 26 ca 3e 4b b2 a4 bf
       0.50215596 0.36168054 0.394824 -1.2866911
000150 36 03 82 3d 2e c5 f3 bf 30 4b 13 be ce 18 03 c0
       0.06348269 -1.904455 -0.1438415 -2.048389
000160 66 07 e1 bf bb c7 dc bf 04 dc 72 3f 09 8e 22 bf
       -1.7580383 -1.7248453 0.9486697 -0.6349798
000170 60 ce 4c 3c bc 00 60 be c5 d5 62 bd 2a b3 00 3f
       0.0125003755 -0.2187528 -0.055379648 0.5027338
000180 0f 14 22 c0 9c cb 69 bf 84 fb 80 3e 00 9f 6d 3f
       -2.5324743 -0.9132631 0.2519189 0.9282074
000190 77 53 01 3e 64 4e fc 3d 81 01 47 bf 53 68 9f bf
       0.12629496 0.12319639 -0.7773667 -1.2453712
0001a0 a8 09 02 bf 61 4c d2 be 41 6d 9a bd 00 b5 f3 3e
       -0.50795984 -0.41073897 -0.0754037 0.4759903
0001b0 b9 86 e2 3e 68 fd 2f bf 94 3b 57 bf 2c 0a fb be
       0.4424341 -0.6874604 -0.84075284 -0.49031198
0001c0 0f 85 a6 be 53 92 7e 3d 46 ff 17 c0 a9 ac 2c bf
       -0.3252339 0.062151264 -2.3749557 -0.6745096
0001d0 e4 16 e9 be 97 d7 1c 3f d5 bf 81 3e af 63 e4 bc
       -0.45525277 0.61266464 0.2534167 -0.027879564
0001e0 9f f1 af bf 11 54 af bf cf 2a 2c bf 7c cd 8d bd
       -1.3745612 -1.369753 -0.6725282 -0.06923959
0001f0 f4 ee 53 be 53 4a 32 3f 41 b8 f2 3e fa f5 a8 be
       -0.20696622 0.6964466 0.474062 -0.33000165
000200 26 74 a6 bd 64 cc 49 bc 2d 22 c2 3e f5 25 0d c0
       -0.08127622 -0.012316797 0.379167 -2.2054417
000210 39 37 9e bf e4 6a 92 bf b1 ed 56 bf fb 90 93 3f
       -1.2360603 -1.143887 -0.8395644 1.152862
000220 13 94 b6 3d 84 7e 3f be c5 e7 e0 bc f0 e4 6c be
       0.08914962 -0.18700606 -0.027454266 -0.23134208
000230 75 35 c8 bf d1 a6 e0 be c7 f3 a6 bd 18 e4 b7 3e
       -1.5641314 -0.4387727 -0.081519656 0.3591621
000240 d2 31 0d 3f 7a 5a 58 3f 60 a0 95 bf 1e ca b4 bf
       0.55154145 0.84513056 -1.1689568 -1.4124181
000250 4f dc 84 bf ec 10 c4 bf 4d 17 22 bf 22 f1 4a 3e
       -1.0379733 -1.5317664 -0.63316804 0.19818547

l3.bias f4 [19]
000000 fc 08 a4 3d 1d 67 15 be 77 0d c3 3e f1 31 66 3e
       0.08009526 -0.14590116 0.3809621 0.22479989
000010 24 56 10 ba 86 ff eb bd 7c 96 aa be 0a fc a6 3c
       -0.0005506 -0.115233466 -0.33317935 0.020383853
000020 68 c4 3a 3d d7 c1 07 3f 7a d2 44 3e 8d b4 5a be
       0.045597464 0.5303015 0.19220915 -0.21357937
000030 00 c2 29 bd 92 bb c4 3d 84 fb f0 bd a9 91 86 3e
       -0.04144478 0.09606089 -0.11766723 0.26283005
000040 23 98 97 be 8a cb 18 bf c0 84 15 be
       -0.2960826 -0.59685576 -0.14601421
